…
          "base_uri": "https://localhost:8080/"
        },
        "id": "71MfFyCMivk-",
        "outputId": "c1cba867-d9f4-4ed9-f857-d62cc35f5c94"
      },
      "execution_count": 10,
      "outputs": [
        {
          "output_type": "stream",
          "name": "stdout",
          "text": [
            "Model: \"sequential\"\n",
            "_________________________________________________________________\n",
            " Layer (type)                Output Shape              Param #   \n",
            "=================================================================\n",
            " conv2d (Conv2D)             (None, 222, 222, 32)      896       \n",
            "                                                                 \n",
            " conv2d_1 (Conv2D)           (None, 220, 220, 32)      9248      \n",
            "                                                                 \n",
            " max_pooling2d (MaxPooling2D  (None, 110, 110, 32)     0         \n",
            " )                                                               \n",
            "                                                                 \n",
            " conv2d_2 (Conv2D)           (None, 108, 108, 64)      18496     \n",
            "                                                                 \n",
            " conv2d_3 (Conv2D)           (None, 106, 106, 64)      36928     \n",
            "                                                                 \n",
            " conv2d_4 (Conv2D)           (None, 104, 104, 64)      36928     \n",
            "                                                                 \n",
            " max_pooling2d_1 (MaxPooling  (None, 52, 52, 64)       0         \n",
            " 2D)                                                             \n",
            "                                                                 \n",
            " flatten (Flatten)           (None, 173056)            0         \n",
            "                                                                 \n",
            " dense (Dense)               (None, 64)                11075648  \n",
            "                                                                 \n",
            " dense_1 (Dense)             (None, 32)                2080      \n",
            "                                                                 \n",
            " output (Dense)              (None, 2)                 66        \n",
            "                                                                 \n",
            "=================================================================\n",
            "Total params: 11,180,290\n",
            "Trainable params: 11,180,290\n",
            "Non-trainable params: 0\n",
            "_________________________________________________________________\n"
          ]
…
      "outputs": [
        {
          "output_type": "stream",
          "name": "stdout",
          "text": [
            "Model: \"model_1\"\n",
            "_________________________________________________________________\n",
            " Layer (type)                Output Shape              Param #   \n",
            "=================================================================\n",
            " input_2 (InputLayer)        [(None, 224, 224, 3)]     0         \n",
            "                                                                 \n",
            " block1_conv1 (Conv2D)       (None, 224, 224, 64)      1792      \n",
            "                                                                 \n",
            " block1_conv2 (Conv2D)       (None, 224, 224, 64)      36928     \n",
            "                                                                 \n",
            " block1_pool (MaxPooling2D)  (None, 112, 112, 64)      0         \n",
            "                                                                 \n",
            " block2_conv1 (Conv2D)       (None, 112, 112, 128)     73856     \n",
            "                                                                 \n",
            " block2_conv2 (Conv2D)       (None, 112, 112, 128)     147584    \n",
            "                                                                 \n",
            " block2_pool (MaxPooling2D)  (None, 56, 56, 128)       0         \n",
            "                                                                 \n",
            " block3_conv1 (Conv2D)       (None, 56, 56, 256)       295168    \n",
            "                                                                 \n",
            " block3_conv2 (Conv2D)       (None, 56, 56, 256)       590080    \n",
            "                                                                 \n",
            " block3_conv3 (Conv2D)       (None, 56, 56, 256)       590080    \n",
            "                                                                 \n",
            " block3_pool (MaxPooling2D)  (None, 28, 28, 256)       0         \n",
            "                                                                 \n",
            " block4_conv1 (Conv2D)       (None, 28, 28, 512)       1180160   \n",
            "                                                                 \n",
            " block4_conv2 (Conv2D)       (None, 28, 28, 512)       2359808   \n",
            "                                                                 \n",
            " block4_conv3 (Conv2D)       (None, 28, 28, 512)       2359808   \n",
            "                                                                 \n",
            " block4_pool (MaxPooling2D)  (None, 14, 14, 512)       0         \n",
            "                                                                 \n",
            " block5_conv1 (Conv2D)       (None, 14, 14, 512)       2359808   \n",
            "                                                                 \n",
            " block5_conv2 (Conv2D)       (None, 14, 14, 512)       2359808   \n",
            "                                                                 \n",
            " block5_conv3 (Conv2D)       (None, 14, 14, 512)       2359808   \n",
            "                                                                 \n",
            " block5_pool (MaxPooling2D)  (None, 7, 7, 512)         0         \n",
            "                                                                 \n",
            " flatten (Flatten)           (None, 25088)             0         \n",
            "                                                                 \n",
            " fc1 (Dense)                 (None, 4096)              102764544 \n",
            "                                                                 \n",
            " fc2 (Dense)                 (None, 4096)              16781312  \n",
            "                                                                 \n",
            " output (Dense)              (None, 2)                 8194      \n",
            "                                                                 \n",
            "=================================================================\n",
            "Total params: 134,268,738\n",
            "Trainable params: 8,194\n",
            "Non-trainable params: 134,260,544\n",
            "_________________________________________________________________\n"
          ]
…
